//
// SPDX-FileCopyrightText: Copyright 2025 Arm Limited and/or its affiliates <open-source-office@arm.com>
// SPDX-License-Identifier: Apache-2.0 WITH LLVM-exception
//
module attributes {tf_saved_model.semantics, tosa.description = "Tosa FBS Converted", tosa.fbs_version = "1.0.0d"} {
  func.func @main(%arg0: tensor<1x17x31x4xf32> {tf_saved_model.index_path = ["input_0"]}, %arg1: tensor<1xf32> {tf_saved_model.index_path = ["input_1"]}) -> (tensor<1x14x29x28xf32> {tf_saved_model.index_path = ["output_0"]}) attributes {tf.entry_function = {inputs = "tosa_deserialized_input_0:0,tosa_deserialized_input_1:0", outputs = "tosa_deserialized_output_0:0"}, tf_saved_model.exported_names = ["tosa_deserialized"]} {
    %0 = tosa.cast %arg1 : (tensor<1xf32>) -> tensor<1xf16>
    %1 = tosa.cast %arg0 : (tensor<1x17x31x4xf32>) -> tensor<1x17x31x4xf16>
    %2 = "tosa.const"() <{values = dense<"…"> : tensor<3x3x4x7xf16>}> : () -> tensor<3x3x4x7xf16>
    %3 = "tosa.const"() <{values = dense<0.000000e+00> : tensor<1xf16>}> : () -> tensor<1xf16>
    %4 = "tosa.const"() <{values = dense<0.000000e+00> : tensor<1xf16>}> : () -> tensor<1xf16>
    %5 = tosa.depthwise_conv2d %1, %2, %0, %3, %4 {acc_type = f16, dilation = array<i64: 2, 2>, pad = array<i64: 1, 0, 1, 1>, stride = array<i64: 1, 1>} : (tensor<1x17x31x4xf16>, tensor<3x3x4x7xf16>, tensor<1xf16>, tensor<1xf16>, tensor<1xf16>) -> tensor<1x14x29x28xf16>
    %6 = tosa.cast %5 : (tensor<1x14x29x28xf16>) -> tensor<1x14x29x28xf32>
    return %6 : tensor<1x14x29x28xf32>
  }
}
